deep_learning/mnist/mnist_model.pth (torch, 409136 bytes, 4 tensors)

fc1.weight f4 [128, 784]
0	0x3cf189d3	0.029484665
1	0x3d025896	0.031822763
2	0xbbcabe70	-0.0061872527
3	0x3d0f4ebd	0.0349872
4	0xbbb8fdd6	-0.005645494
5	0x3c19c9b8	0.009386472
6	0xbc792b17	-0.015208027
7	0x3cbdad9b	0.02315407
8	0x3d09e289	0.033663306
9	0xbcc4c85b	-0.024021318
10	0x3d08142b	0.03322236
11	0x3c1139fa	0.00886392
12	0x3ce8a511	0.028399022
13	0x3bd9f471	0.006651454
14	0x3c9eee33	0.019400692
15	0xbb3b9f5e	-0.0028628926
16	0x3cf36527	0.02971132
17	0x3bf466aa	0.0074585276
18	0xbc6d74dc	-0.0144931935
19	0x3c38dcfe	0.011283157
20	0xbc69e2a8	-0.0142752305
21	0xbb03a3f6	-0.0020086742
22	0xbc49f30e	-0.012326015
23	0x3cd3f07d	0.02587151
24	0xbcd51757	-0.026012106
25	0xbc6a0ba8	-0.014285006
26	0xbc0184b6	-0.007905176
27	0xbc9e0f25	-0.01929433
28	0x3bb5e0a2	0.00555046
29	0xbd078e39	-0.03309462
30	0x3d0d0a2d	0.034433533
31	0xbce6ac8b	-0.028158447
32	0x3cf3ba0d	0.029751802
33	0x3c05138c	0.008122336
34	0xbc1b1c3e	-0.009467183
35	0x3cc59302	0.02411795
36	0x3bf1f56a	0.007383992
37	0x3cfa1c46	0.03053106
38	0x3baac8e6	0.0052119372
39	0xbc27ee34	-0.010249663
40	0x3c2c5ae5	0.010519718
41	0xbc0f6c3c	-0.008753832
42	0x3c8e40c7	0.017364873
43	0x3d0c483e	0.034248583
44	0x3cbbe8ba	0.022938121
45	0xbc5cb02a	-0.013469735
46	0x3cb9fc74	0.022703387
47	0x3c0b301a	0.008495355
48	0x3ca5ba63	0.020230478
49	0xbca08a3b	-0.019597163
50	0xbd07eab2	-0.033182807
51	0xbc3e8fb2	-0.011630939
52	0xbcce8d91	-0.025213988
53	0x3d00f604	0.03148462
54	0x3c4c4032	0.012466477
55	0x3c8b0b01	0.01697302
56	0x3c5cc4ee	0.013474686
57	0x3acc41e1	0.0015583598
58	0x3cf6d239	0.030129539
59	0xbcbe051d	-0.023195798
60	0x3b90e643	0.0044219806
61	0xbcb5dd00	-0.022200108
62	0x3c555d37	0.013022712
63	0xbc344bf3	-0.011004436
64	0x3c32add0	0.010905698
65	0xbbb3df7c	-0.005489288
66	0x3d071179	0.032975648
67	0xbcc0d862	-0.02354068
68	0xbc795511	-0.015218035
69	0xbb8ac194	-0.004234502
70	0x3cf0f365	0.029412935
71	0x3c2e5143	0.0106394915
72	0x3d10ecad	0.03538196
73	0xbd106ed8	-0.03526196
74	0xbd3307f4	-0.043708757
75	0xbd0452d2	-0.032305546
76	0xbcc85cb5	-0.024458269
77	0x3c81682d	0.015796745
78	0x3c6ef245	0.014584129
79	0x3d0277c3	0.031852495
80	0xbc7ac542	-0.015305819
81	0xbcb08389	-0.021547096
82	0x3cad1689	0.02112891
83	0xbc48ce5e	-0.012256233
84	0x3cc36cb1	0.023855539
85	0xbbce49a0	-0.006295398
86	0x3cc1d3fb	0.02366065
87	0xbccf6967	-0.025318814
88	0xbc81d04e	-0.015846398
89	0x3c523480	0.0128299
90	0x3c19a428	0.009377517
91	0xbc05e04d	-0.008171153
92	0x3ca377ce	0.019954588
93	0x3d048efc	0.032362923
94	0xbca499a0	-0.020092785
95	0xbce94378	-0.028474554
96	0x3d2ec798	0.042670816
97	0x3bba4015	0.0056839087
98	0xbc6e0fb9	-0.014530116
99	0xbd47ceee	-0.048781328
100	0xbce15a93	-0.02750901
101	0x3b11978c	0.0022215573
102	0xbcdff47c	-0.027338259
103	0xbcf0ad0b	-0.029379388
104	0xbb33b5a0	-0.002742149
105	0xbd10da66	-0.03536453
106	0xbd029bcf	-0.031886872
107	0xbc91ee68	-0.017813876
108	0xbce719ea	-0.028210599
109	0xbca5b89c	-0.02022963
110	0x3d18f108	0.03733924
111	0x3c123afc	0.008925196
112	0x3c58075a	0.0131853465
113	0xbcff054e	-0.03113046
114	0xbc90c8cd	-0.017673874
115	0xbc23a141	-0.009987176
116	0x3b95c8af	0.0045710425
117	0xbcb94ba0	-0.022619069
118	0xbbd64231	-0.0065386523
119	0xbc9880da	-0.018616129
120	0x3c1220ef	0.008918985
121	0xbb9c24f3	-0.004765147
122	0x3c498b64	0.0123013
123	0x3b42bcde	0.0029714624
124	0x3ca94e8f	0.020667342
125	0x3d62540a	0.055255927
126	0x3ce65c8b	0.0281203
127	0xbcee6a4d	-0.029103423
128	0xbb548f31	-0.0032433982
129	0xbd302862	-0.043007262
130	0x3cb30901	0.02185488
131	0x3ca74abf	0.020421384
132	0xbd2e5425	-0.042560715
133	0x3b30307d	0.002688437
134	0xbca091ae	-0.019600715
135	0xbcafb9ff	-0.021450995
136	0xbd1f334b	-0.038867276
137	0xbd154f9e	-0.036452882
138	0x3c3f629a	0.011681223
139	0xbbcd24e2	-0.0062605003
140	0x3c83c2bf	0.016084073
141	0xbcde3f27	-0.027129723
142	0x3cef5d18	0.029219195
143	0xbcc5595d	-0.024090463
144	0xba65feb3	-0.000877361
145	0x3d0534b0	0.03252095
146	0x3d07dce4	0.033169642
147	0x3cf02973	0.02931664
148	0x3c6d51ce	0.014484836
149	0xbd2ef675	-0.04271551
150	0x3cd91c9d	0.026502902
151	0x3c9c2d41	0.019064547
152	0x3cf1448e	0.029451635
153	0xbc1579de	-0.009123294
154	0x3ccf8f0d	0.025336767
155	0xbc9c296f	-0.019062726
156	0xbcc376af	-0.023860304
157	0xbd65262c	-0.055944607
158	0xbc1c4f78	-0.009540431
159	0xbce0b85a	-0.027431656
160	0xbbd63f6d	-0.0065383227
161	0xbcd307d0	-0.025760561
162	0xbcc5d753	-0.024150526
163	0xbd5a2272	-0.053255506
164	0x3be59f6d	0.0070075304
165	0xbbe947c0	-0.007119149
166	0xbc86d17a	-0.016457308
167	0x3d02b55c	0.03191124
168	0x3c262b14	0.010142107
169	0xbc900461	-0.017580213
170	0xbc917f68	-0.017760947
171	0xbb02905b	-0.0019922468
172	0x3c832aaf	0.016011564
173	0xbc7d3710	-0.015455022
174	0xbcefe66a	-0.029284675
175	0xbd1a3b3e	-0.037654154
176	0xbd9e791f	-0.07737946
177	0xbc468dc0	-0.012118757
178	0x3d83d126	0.06436376
179	0x3ca808bb	0.020511976
180	0x3d014fad	0.031570125
181	0x3d4ad24d	0.049516965
182	0xbc3a94a1	-0.011387975
183	0xbd332b4d	-0.043742467
184	0xbc567e16	-0.013091585
185	0xbc8db782	-0.017299417
186	0xbb3d6417	-0.002889877
187	0xbd84d7c9	-0.0648647
188	0xbd8edcd1	-0.06975711
189	0xbd1960f2	-0.03744597
190	0xbd194689	-0.037420783
191	0xbccb5f86	-0.024825823
192	0x3c5c03dc	0.0134286545
193	0x3cf4f39e	0.029901322
194	0xbaf83898	-0.0018937765
195	0xbbc0e2c7	-0.005886409
196	0x3b30ffb3	0.0027007877
197	0x3845fe07	4.720504e-05
198	0x3c1ff8c9	0.009763905
199	0x3c29e7d7	0.010370216
200	0xbd49ee02	-0.049299248
201	0xbd505fad	-0.050872494
202	0xbc23cb61	-0.00999722
203	0xbd034d4a	-0.03205613
204	0xbd0cc41b	-0.03436671
205	0x3a95f93d	0.0011442077
206	0x3d27ad3e	0.0409367
207	0x3d242b7f	0.040080544
208	0x3cbb65d0	0.022875696
209	0x3cd6885a	0.026188064
210	0x3cedfcc9	0.029051201
211	0xbc4670c5	-0.012111847
212	0xbd398f27	-0.045302536
213	0xbd78a966	-0.060708426
214	0xbd55a31e	-0.052157514
215	0xbd09552e	-0.0335285
216	0xbd3ddc12	-0.046352454
217	0xbd34386f	-0.04399913
218	0xb8ce9b5c	-9.8517834e-05
219	0xbcf7d955	-0.030255
220	0xbd1a6ecb	-0.037703317
221	0x3ca7aaec	0.020467244
222	0xbc73a81e	-0.014871625
223	0xbba7d035	-0.0051212558
224	0xbd089908	-0.033349067
225	0x3cd5aa5d	0.026082212
226	0x3cf3d645	0.029765258
227	0x3c7db6f1	0.015485511
228	0xbd1faba7	-0.03898206
229	0xbd8e5403	-0.06949618
230	0xbd5ef379	-0.054431412
231	0x3c7c2562	0.015389772
232	0x3c03b14a	0.0080378745
233	0x3d2e1727	0.04250255
234	0x3dbb3554	0.09141031
235	0x3d82ce2e	0.06386982
236	0x3d0cb23e	0.034349672
237	0xbd0e5130	-0.034745395
238	0x3c034ab7	0.008013419
239	0xbcc3075e	-0.023807224
240	0xbd3f8ae9	-0.046763334
241	0xbd2addb8	-0.041715354
242	0xbd8b8226	-0.06811933
243	0xbdaba88b	-0.083817564
244	0xbd49834b	-0.049197476
245	0xbd5709ee	-0.052499704
246	0xbd066d18	-0.032818884
247	0xbb171b93	-0.0023057207
248	0xbcc2cc45	-0.023779044
249	0x3c9b9e57	0.0189964
250	0xbc27443b	-0.0102091385
251	0xbcc56791	-0.024097236
252	0xbb870fb8	-0.004121747
253	0xbc77c352	-0.015122252
254	0xbbe61de7	-0.0070226076
255	0xbcf184f9	-0.029482352

fc1.bias f4 [128]
0	0xbbc4cbfb	-0.0060057617
1	0x3cab9166	0.020943355
2	0x3d302922	0.043007977
3	0x3ac8caf4	0.0015319274
4	0xbd1832fa	-0.03715799
5	0x3cb03f80	0.021514654
6	0xbb87e75a	-0.0041474523
7	0xbcb609b1	-0.022221418
8	0xbc8850f7	-0.01664017
9	0xbca58978	-0.020207152
10	0x3c35695f	0.011072486
11	0x3d184d4d	0.037183095
12	0x3c7b3b13	0.015333909
13	0xbd0720b8	-0.032990187
14	0xbb150a5f	-0.0022741777
15	0x3b9925b2	0.004673683
16	0xbca4bff7	-0.020111067
17	0xbd4f996b	-0.05068342
18	0x3caf7caa	0.02142175
19	0x3ccacfa8	0.024757221
20	0x3b6c3a89	0.0036045632
21	0x3bd8995a	0.006610078
22	0x3ccf2e34	0.025290586
23	0xba66eeaa	-0.00088093674
24	0xbd009992	-0.031396456
25	0x3b24ec21	0.0025165158
26	0xbcf21edc	-0.02955573
27	0xbc91bfd6	-0.01779167
28	0xbcdffe33	-0.027342891
29	0xbd0e078c	-0.034675166
30	0x3bb7ae80	0.005605519
31	0x3cd0051b	0.02539306
32	0xbc3a4b2f	-0.011370464
33	0xbd813b3d	-0.06310127
34	0x3c5ba9fc	0.013407227
35	0x3cbfd4fa	0.023416985
36	0xbc8b3c35	-0.016996482
37	0xbbd96fac	-0.006635627
38	0x3bcf1b40	0.006320387
39	0xbc920045	-0.017822394
40	0x3c2bde74	0.010490049
41	0xbb77d4e6	-0.0037816106
42	0xbd13a7fb	-0.03604887
43	0x3ced112c	0.028938852
44	0xbc97aeb1	-0.018515917
45	0x3c4a0c47	0.012332029
46	0x3c855434	0.016275503
47	0xbc4da087	-0.01255048
48	0xbc94e23d	-0.018174285
49	0xbcc68b28	-0.024236277
50	0x3c61b343	0.0137756495
51	0xbbab955e	-0.005236312
52	0xbc1d4254	-0.009598333
53	0x3d084988	0.03327325
54	0xbc8b5b1d	-0.01701122
55	0x3bf36e31	0.0074289073
56	0xbc4d60e8	-0.012535311
57	0x3cf73057	0.030174417
58	0x3c8f1821	0.01746756
59	0xbc714c0f	-0.014727606
60	0x3ad6b29b	0.0016380133
61	0x389ce8f8	7.4820535e-05
62	0x3a811609	0.0009848486
63	0x3cf2ddea	0.029646832
64	0xbcb65615	-0.022257844
65	0x3b800084	0.0039063115
66	0xbd022909	-0.031777415
67	0x3c8c6720	0.017139018
68	0x3c77b647	0.015119142
69	0x3ce6b5dd	0.028162891
70	0x3c3dce65	0.011584853
71	0x3cc97b7b	0.024595013
72	0x3cb8c4ac	0.022554718
73	0xbd262860	-0.04056585
74	0x3b1e6bca	0.0024173134
75	0x3b1ec702	0.0024227505
76	0xba18ad35	-0.00058241497
77	0xbb84adbd	-0.0040490315
78	0xbcb8371b	-0.022487214
79	0x3cd20d31	0.025641056
80	0x3bf6d3c4	0.0075325686
81	0xbc8f9cdd	-0.017530853
82	0xbcf45d2f	-0.02982959
83	0xbcdba561	-0.026812257
84	0x3c2d6827	0.010583914
85	0x3cfe18e0	0.03101772
86	0xbd3d2fe9	-0.04618827
87	0xbcdafe31	-0.026732536
88	0xbd256ace	-0.04038506
89	0xbcaa2cc9	-0.020773308
90	0xbc10c7db	-0.008836712
91	0xbc87369d	-0.016505534
92	0xbcaa9020	-0.020820677
93	0x3c996401	0.018724443
94	0x3c953218	0.018212363
95	0xbd34fc01	-0.044185642
96	0x3d1cda68	0.038294226
97	0x3cfdce49	0.030982153
98	0xbc5979f3	-0.013273704
99	0xbb8d02e5	-0.0043033236
100	0xbc99dcda	-0.018782068
101	0x3c8e3b0b	0.017362138
102	0x3c7716c2	0.0150811095
103	0xbcd71f23	-0.026259964
104	0xbaa883f2	-0.0012856706
105	0xbcad1ea3	-0.021132773
106	0x3b10e06f	0.002210643
107	0x3a2af105	0.00065209
108	0x3cbdfeda	0.023192812
109	0x3bc3f0d7	0.005979638
110	0x3d632b1b	0.05546103
111	0xbcad2a8f	-0.021138458
112	0xbbb2f36e	-0.005461148
113	0x39f115b0	0.0004598326
114	0xbbb8fd71	-0.005645447
115	0x3c85a006	0.016311657
116	0xbc98d23c	-0.018654935
117	0xbc8670d2	-0.016411219
118	0xbcdee446	-0.027208459
119	0x3c15cdeb	0.009143333
120	0xbcbedf52	-0.023299847
121	0xbcc43863	-0.023952669
122	0x3d004d09	0.031323466
123	0x3a50cfe4	0.00079655484
124	0x3c64989a	0.013952399
125	0xbcf4fa89	-0.02990462
126	0x3c837f49	0.016051905
127	0x3b96e9d1	0.00460551

fc2.weight f4 [10, 128]
0	0x3dac0488	0.08399302
1	0x3d4ed448	0.050495416
2	0x3efef77a	0.49798185
3	0x3e4f48c2	0.20242599
4	0xbc2f7969	-0.010710099
5	0xbda04e0e	-0.07827388
6	0xbde3030c	-0.110845655
7	0xbd9a8cdf	-0.075464
8	0x3c6ce96a	0.014459947
9	0xbe9d799e	-0.3075685
10	0xbe1b958a	-0.15193763
11	0xbe768260	-0.24073172
12	0xbe26305e	-0.16229388
13	0xbe5e37aa	-0.21700922
14	0xbd8ed9e4	-0.06975153
15	0x3e57547a	0.21028319
16	0xbe6e059b	-0.23244326
17	0xbeca9122	-0.39563853
18	0xbf0f31ea	-0.5593554
19	0x3ea683c3	0.325224
20	0xbdaea6d9	-0.085279174
21	0xbe19eb57	-0.15031181
22	0x3e9d4511	0.30716756
23	0x3e65995f	0.22421788
24	0xbe5aede3	-0.21379809
25	0xbb687291	-0.0035468678
26	0xbdd8dba4	-0.10588768
27	0x3e63f7df	0.22262524
28	0x3c4313a2	0.011906536
29	0xbdac9493	-0.08426776
30	0xbe603d44	-0.21898371
31	0x3ea8f482	0.32999045
32	0xbdacfe37	-0.08446925
33	0xbda3e3ad	-0.0800241
34	0xbac6d959	-0.0015170976
35	0x3da0e16d	0.078554966
36	0xbeaa78e3	-0.33295354
37	0x3eb8a12b	0.3606046
38	0xbe547d05	-0.20750816
39	0x3c73d73b	0.014882858
40	0x3e087049	0.13324083
41	0x3e80f094	0.25183547
42	0xbe3848d3	-0.1799653
43	0xbe63dc2d	-0.22251959
44	0x3e8b4486	0.27200717
45	0xbde9d7f3	-0.11418142
46	0xbe8b2d8a	-0.2718318
47	0xbdfc0598	-0.123057544
48	0xbeaa1901	-0.332222
49	0xbdc71483	-0.09720709
50	0xbe0e8ebd	-0.13921638
51	0x3ad75d2d	0.0016430967
52	0xbe14b952	-0.14523819
53	0xbd5cd41f	-0.053913232
54	0x3e70547e	0.23469731
55	0xbd5388fe	-0.051644318
56	0xbc97de6a	-0.018538672
57	0x3e81b514	0.25333464
58	0xbde48979	-0.11159033
59	0x3dfc65c8	0.12324101
60	0x3d1a8b94	0.03773077
61	0x3dc8b6ef	0.09800517
62	0x3d6d08c1	0.057869677
63	0x3c2e28c2	0.010629835
64	0x3cbb4fd1	0.022865208
65	0xbd5b8f37	-0.053603377
66	0x3c9fdaa3	0.019513434
67	0xbd85c16a	-0.065310314
68	0xbda3016b	-0.07959255
69	0xbe740530	-0.23830104
70	0xbee87682	-0.45402914
71	0x3e475c27	0.19468747
72	0x3d98a034	0.07452431
73	0xbb940d70	-0.0045182034
74	0x3e3c13b4	0.18366891
75	0x3ea0c590	0.31400728
76	0xbddb8b91	-0.107199796
77	0x3dc64308	0.09680754
78	0x3dfb9cdb	0.12285777
79	0x3d2512d6	0.040301166
80	0xbcdfc086	-0.027313482
81	0x3e673977	0.22580515
82	0xbd37369e	-0.04472982
83	0xbda8786d	-0.082260944
84	0xbde4d773	-0.11173906
85	0x3d7d7783	0.061881553
86	0xbb9a0d98	-0.0047013275
87	0x3d45b436	0.048267566
88	0xbe30934c	-0.1724369
89	0x3e47d2ae	0.19513962
90	0x3d027958	0.031854004
91	0x3c8c7477	0.017145379
92	0x3d8dd6e2	0.06925751
93	0x3e0a953e	0.13533494
94	0x3e6092a2	0.21930936
95	0x3d1e31f2	0.03862185
96	0xbe304f70	-0.17217803
97	0x3eb4f202	0.35340887
98	0xbd0928d0	-0.033486187
99	0xbe51f743	-0.20504479
100	0x3e9ce4d9	0.30643347
101	0x3e5c8b35	0.21537478
102	0xbed7723b	-0.42079338
103	0xbe997858	-0.29974627
104	0xbdc106ae	-0.09425102
105	0xbe850325	-0.25978962
106	0xbe8de0a8	-0.27710462
107	0x3d7aadc1	0.06120086
108	0xbd086d7b	-0.033307534
109	0xbe21a429	-0.15785278
110	0xbe24682e	-0.16055366
111	0xbde514f8	-0.1118564
112	0x3ec8307f	0.390995
113	0xbd46080c	-0.048347518
114	0x3e8ab363	0.27089986
115	0xbddb3c90	-0.10704911
116	0x3dd2b1c2	0.10287811
117	0x3ea6977f	0.32537457
118	0xbea62157	-0.3244731
119	0x3b9253d2	0.0044655586
120	0x3ca5f8ca	0.020260233
121	0xbdef143e	-0.11673783
122	0xbd211ea4	-0.03933586
123	0x3e0036a0	0.12520838
124	0x3e691c22	0.22764638
125	0xbe5c3f34	-0.21508485
126	0x3de10157	0.10986584
127	0xbd86ce89	-0.06582362
128	0x3ee96222	0.45582682
129	0x3d7626d7	0.060095634
130	0x3d8e6940	0.069536686
131	0xbe8f6404	-0.28005993
132	0xbeb7427f	-0.3579292
133	0x3cb16d6d	0.021658624
134	0x3dd8aa10	0.10579312
135	0xbdb0dad6	-0.0863549
136	0x3e44c68c	0.19216365
137	0x3ef0c1c9	0.47022846
138	0x3e38af7b	0.1803569
139	0xbc3b7ad8	-0.011442862
140	0xbd1de5d4	-0.03854926
141	0xbdf10db7	-0.11770194
142	0x3b7a0438	0.0038149487
143	0x3ec187b3	0.37798843
144	0xbd9c28b6	-0.076249525
145	0x3e4e824e	0.20166895
146	0x3d87b214	0.066257626
147	0xbe80c193	-0.25147685
148	0x3d099b38	0.033595294
149	0xbe05abdd	-0.13053842
150	0xbe4e6686	-0.20156297
151	0x3ecb2c56	0.39682263
152	0xbd977c42	-0.07396747
153	0x3dc88fe0	0.09793067
154	0xbe05eedd	-0.130794
155	0x3e892140	0.2678318
156	0x3ecb21c7	0.39674208
157	0x3e44fe11	0.19237544
158	0xbd972bab	-0.07381376
159	0x3c615b93	0.013754743
160	0x3e8809de	0.26570028
161	0xbd0860bf	-0.03329539
162	0x3e837420	0.25674534
163	0xbe514532	-0.20436552
164	0x3e841b08	0.25801873
165	0xbd33c6bb	-0.043890696
166	0xbd9d8ff6	-0.07693474
167	0x3dcf7de2	0.10131432
168	0xbd79839f	-0.06091654
169	0xbe870fbc	-0.26379192
170	0xbdb066fc	-0.08613393
171	0xbe496948	-0.19669068
172	0xbdb2a071	-0.08722008
173	0xbe7d03b4	-0.24708444
174	0xbd809821	-0.06279016
175	0x3e170229	0.14746918
176	0xbd602c26	-0.054729603
177	0x3e27bfe3	0.16381793
178	0x3e09de36	0.13463673
179	0xbe21b34f	-0.15791057
180	0xbedf7b99	-0.43648985
181	0x3d54cdf7	0.051954236
182	0xbe1c96d7	-0.15291916
183	0x3d27cdd1	0.040967766
184	0x3bec7e02	0.0072171697
185	0xbeb58127	-0.35450098
186	0x3e64f413	0.22358732
187	0xbeacd429	-0.33755615
188	0x3e55c54d	0.20876046
189	0xbd995350	-0.07486594
190	0x3e08e15d	0.1336722
191	0xbd248afa	-0.0401716
192	0xbecf0952	-0.40436798
193	0xbe80c39b	-0.25149235
194	0x3caf5a7d	0.021405453
195	0xbe212de7	-0.15740167
196	0x3e51cf80	0.20489311
197	0x3cb189d5	0.021672169
198	0x3e89e5cc	0.26933134
199	0xbd9f3875	-0.0777444
200	0xbdb5a6d4	-0.088697106
201	0x3dda6b2b	0.10664972
202	0xbe75063f	-0.23928164
203	0x3c20b38a	0.00980843
204	0xbdc8e83f	-0.098099224
205	0xbcb4dafe	-0.02207708
206	0xbdb5d5df	-0.08878683
207	0x3cb6a5c3	0.022295838
208	0x3e35b839	0.17746057
209	0xbe4c2ac5	-0.1993819
210	0xbc675bea	-0.014121035
211	0xbe79153a	-0.24324504
212	0xbe76e78f	-0.2411177
213	0x3d0eb864	0.034843817
214	0x3daa7db7	0.083247595
215	0x3e7248d5	0.23660596
216	0xbe4bde8c	-0.19909114
217	0x3d399a57	0.045313206
218	0x3dbed7b4	0.09318486
219	0x3ea8ee78	0.32994437
220	0x39b4ebc6	0.0003450794
221	0x3e602f45	0.21893032
222	0xbe81c315	-0.25344148
223	0xbc564750	-0.013078526
224	0x3d8df929	0.06932289
225	0xbdfd1456	-0.123573944
226	0x3ee52f19	0.44762495
227	0x3d85a230	0.065250754
228	0xbdee853c	-0.11646506
229	0xbd5f5178	-0.054521054
230	0xbe879828	-0.26483274
231	0x3e35010d	0.17676182
232	0x3e2e40f8	0.17016971
233	0xbe99f441	-0.30069163
234	0xbd22377d	-0.0396037
235	0xbe0010ef	-0.1250646
236	0x3ebfede2	0.37486178
237	0x3e79ede6	0.24407157
238	0x3dc808f9	0.097673364
239	0xbbc05fb8	-0.0058707856
240	0xbe83bf48	-0.25731874
241	0x3e706239	0.23474969
242	0x3e02f389	0.12788214
243	0x3e2346d3	0.15944986
244	0x3de8ebb8	0.11373085
245	0xbe07c1e3	-0.13257556
246	0x3e2ef734	0.17086488
247	0xbe7ee5ce	-0.24892351
248	0xbe18417e	-0.14868733
249	0x3e03fc0d	0.12889118
250	0x3eb056ac	0.34441125
251	0x3d4c2399	0.049838636
252	0xbe306c64	-0.17228848
253	0xbe40723f	-0.18793581
254	0xbdf78dac	-0.12087569
255	0x3defbf7e	0.11706446

fc2.bias f4 [10]
0	0xbd57d5b5	-0.05269404
1	0xbdd80ae9	-0.10548956
2	0xbdab2e80	-0.083584785
3	0xbd857048	-0.065155566
4	0x3c61044b	0.013733934
5	0x3dcd2cf8	0.10018343
6	0xbd8a8eca	-0.06765516
7	0xbdca4c17	-0.09877794
8	0x3e5844ad	0.21119948
9	0x3d4ed2ea	0.050494112
